…
werkzeug                  1.0.1                    pypi_0    pypi
wheel                     0.35.1                     py_0  
widgetsnbextension        3.5.1                    pypi_0    pypi
xz                        5.2.5                h7b6447c_0  
zeromq                    4.3.3                he1b5a44_2    conda-forge
zipp                      3.3.1                      py_0    conda-forge
zlib                      1.2.11               h7b6447c_3  
zstd                      1.4.5                h9ceee32_0  
learning_rate : 0.0001
max_steps : 5000
batch_size : 32
eval_freq : 500
data_dir : ./cifar10/cifar-10-batches-py
(32, 3, 32, 32)
ConvNet(
  (conv0): Conv2d(3, 64, kernel_size=(3, 3), stride=(1, 1), padding=(1, 1))
  (PreAct1): PreActBlock(
    (net): Sequential(
      (0): BatchNorm2d(64, eps=1e-05, momentum=0.1, affine=True, track_running_stats=True)
      (1): ReLU()
      (2): Conv2d(64, 64, kernel_size=(3, 3), stride=(1, 1), padding=(1, 1), bias=False)
    )
  )
  (conv1): Conv2d(64, 128, kernel_size=(1, 1), stride=(1, 1))
  (maxpool1): MaxPool2d(kernel_size=3, stride=2, padding=1, dilation=1, ceil_mode=False)
  (PreAct2_a): PreActBlock(
    (net): Sequential(
      (0): BatchNorm2d(128, eps=1e-05, momentum=0.1, affine=True, track_running_stats=True)
      (1): ReLU()
      (2): Conv2d(128, 128, kernel_size=(3, 3), stride=(1, 1), padding=(1, 1), bias=False)
    )
  )
  (PreAct2_b): PreActBlock(
    (net): Sequential(
      (0): BatchNorm2d(128, eps=1e-05, momentum=0.1, affine=True, track_running_stats=True)
      (1): ReLU()
      (2): Conv2d(128, 128, kernel_size=(3, 3), stride=(1, 1), padding=(1, 1), bias=False)
    )
  )
  (conv2): Conv2d(128, 256, kernel_size=(1, 1), stride=(1, 1))
  (maxpool2): MaxPool2d(kernel_size=3, stride=2, padding=1, dilation=1, ceil_mode=False)
  (PreAct3_a): PreActBlock(
    (net): Sequential(
      (0): BatchNorm2d(256, eps=1e-05, momentum=0.1, affine=True, track_running_stats=True)
      (1): ReLU()
      (2): Conv2d(256, 256, kernel_size=(3, 3), stride=(1, 1), padding=(1, 1), bias=False)
    )
  )
  (PreAct3_b): PreActBlock(
    (net): Sequential(
      (0): BatchNorm2d(256, eps=1e-05, momentum=0.1, affine=True, track_running_stats=True)
      (1): ReLU()
      (2): Conv2d(256, 256, kernel_size=(3, 3), stride=(1, 1), padding=(1, 1), bias=False)
    )
  )
  (conv3): Conv2d(256, 512, kernel_size=(1, 1), stride=(1, 1))
  (maxpool3): MaxPool2d(kernel_size=3, stride=2, padding=1, dilation=1, ceil_mode=False)
  (PreAct4_a): PreActBlock(
    (net): Sequential(
      (0): BatchNorm2d(512, eps=1e-05, momentum=0.1, affine=True, track_running_stats=True)
      (1): ReLU()
      (2): Conv2d(512, 512, kernel_size=(3, 3), stride=(1, 1), padding=(1, 1), bias=False)
    )
  )
  (PreAct4_b): PreActBlock(
    (net): Sequential(
      (0): BatchNorm2d(512, eps=1e-05, momentum=0.1, affine=True, track_running_stats=True)
      (1): ReLU()
      (2): Conv2d(512, 512, kernel_size=(3, 3), stride=(1, 1), padding=(1, 1), bias=False)
    )
  )
  (maxpool4): MaxPool2d(kernel_size=3, stride=2, padding=1, dilation=1, ceil_mode=False)
  (PreAct5_a): PreActBlock(
    (net): Sequential(
      (0): BatchNorm2d(512, eps=1e-05, momentum=0.1, affine=True, track_running_stats=True)
      (1): ReLU()
      (2): Conv2d(512, 512, kernel_size=(3, 3), stride=(1, 1), padding=(1, 1), bias=False)
    )
  )
  (PreAct5_b): PreActBlock(
    (net): Sequential(
      (0): BatchNorm2d(512, eps=1e-05, momentum=0.1, affine=True, track_running_stats=True)
      (1): ReLU()
      (2): Conv2d(512, 512, kernel_size=(3, 3), stride=(1, 1), padding=(1, 1), bias=False)
    )
  )
  (maxpool5): MaxPool2d(kernel_size=3, stride=2, padding=1, dilation=1, ceil_mode=False)
  (fc): Linear(in_features=512, out_features=10, bias=True)
)
  0%|          | 0/5000 [00:00<?, ?it/s]torch.Size([32, 512])
  0%|          | 0/5000 [00:00<?, ?it/s]
Traceback (most recent call last):
  File "train_convnet_pytorch.py", line 195, in <module>
    main()
  File "train_convnet_pytorch.py", line 177, in main
    model = train()
  File "train_convnet_pytorch.py", line 137, in train
    preds = model(x)
…
